…
To enable them in other operations, rebuild TensorFlow with the appropriate compiler flags.
2025-09-16 11:56:54.637789: I tensorflow/core/common_runtime/gpu/gpu_device.cc:1616] Created device /job:localhost/replica:0/task:0/device:GPU:0 with 4609 MB memory:  -> device: 0, name: NVIDIA GeForce GTX 1060 6GB, pci bus id: 0000:01:00.0, compute capability: 6.1
Model: "sequential"
_________________________________________________________________
 Layer (type)                Output Shape              Param #
=================================================================
 dense (Dense)               (None, 512)               40448

 batch_normalization (BatchN  (None, 512)              2048
 ormalization)

 dropout (Dropout)           (None, 512)               0

 dense_1 (Dense)             (None, 256)               131328

 batch_normalization_1 (Batc  (None, 256)              1024
 hNormalization)

 dropout_1 (Dropout)         (None, 256)               0

 dense_2 (Dense)             (None, 128)               32896

 batch_normalization_2 (Batc  (None, 128)              512
 hNormalization)

 dropout_2 (Dropout)         (None, 128)               0

 dense_3 (Dense)             (None, 15)                1935

=================================================================
Total params: 210,191
Trainable params: 208,399
Non-trainable params: 1,792
_________________________________________________________________
2025-09-16 11:56:55.138744: W tensorflow/core/framework/cpu_allocator_impl.cc:82] Allocation of 635897808 exceeds 10% of free system memory.
Epoch 1/100
31846/31846 [==============================] - 276s 9ms/step - loss: 1.3431 - accuracy: 0.6201 - val_loss: 1.5996 - val_accuracy: 0.6308 - lr: 0.0010
…
